Models/critic.pt (torch, 796617 bytes, 5 tensors)

critic.0.weight f4 [500, 195]
00000000: ba08 db3b 9316 6d3d 503e 153d 5b61 983b
00000010: 9364 52bd 5e47 e33c 1354 3b3d b26a ffbc
00000020: 5f9e 6ebd 3e1c 5dbd fbd8 a8ba 6070 8b3d
00000030: 0312 7f3d 8593 953b c371 52bd 860a 5f3c
00000040: 61dd 3f3d 229d 193d cd80 fabc e6e5 1d3d
00000050: 9cba 0b3d fec5 523d 378c e9bb f243 c43c
00000060: 2ba0 1dbd 5f29 833c 1ca1 7bbb 3330 3c3b
00000070: 6067 85bb 2ef7 9e3c 08a4 a7bc b4ef 0cbd
00000080: e7fb 81bd dac5 6c3d f8a3 8e3c 7cdc 483a
00000090: c29d 20bd 087c dc3b 5c6f c43c 8924 cdbc
000000a0: 9384 92bd 2cbf b93c 4b24 8d3c 4216 35bd
000000b0: cd8c 83bd 98d2 d9bc df3d 18bc 23bc bd3c
000000c0: a9dc 84bd 652d 2ebc 5bdc 8dbd a79f 623d
000000d0: ab99 65bc cb10 0bbc 558e 053b 40a2 a83c
000000e0: 6519 693d 1fc7 42bd cd62 38bd 65f9 ed3c
000000f0: d145 41bd 43e2 92bb f21d cdbc 0fd8 57bd
00000100: bdfa 42bd 8844 d4bc 4322 6cbc 0844 89bd
00000110: 5a57 4d3d a5f4 3b3d 634a 7ebc 4323 503d
00000120: dca9 b5bc 950c 423d fec9 78bd ba01 7abc
00000130: 9fcf afbc e599 0d3d 70ad cd3c a6c9 3bbc
00000140: 5242 3abd 9a26 7f3d 5c43 0cbd ab74 a33b
00000150: ddfd 183d c142 33bd 41f4 d63c 7aa7 52bd
00000160: ba2a 72bd df70 fcbc e643 833d 9098 773d
00000170: 3fbb 263d 85f6 8ebd a7d4 7f3d da92 053d
00000180: 3902 9abc c5e6 903c 6a05 313d 6d62 5bbd
00000190: 4651 7cbd cff2 7b3d 983f d93c a0c6 6ebd
000001a0: b9fe 65bd abd1 ed3c 5913 673d d655 443d
000001b0: 4714 d03c a916 38bd b101 683d 8854 843c
000001c0: 7430 19bc ab82 52bd 9bae ad3c 815a 67bd
000001d0: b04f 1e3d bb23 d7bc b550 833d a889 7b3c
000001e0: d3a7 593c 57ed 373c 6588 cdba 313e f9bc
000001f0: 6a4e 81bd 03bc df3c 0703 883d d5eb 533d
00000200: 525f 573d 646d af3c aa39 caba a77b 203b
00000210: 0a41 20bd 22ee 91bd 2303 053d 0394 543d
00000220: ce07 88bc 4fd7 50bc 429c 76bd 6186 d9bb
00000230: a4c7 5f3d 3edf 55bd 8377 843c c78e 0dbd
00000240: 0aa4 bd3c a810 893d 7ff5 163c 7d51 c83b
00000250: 44b3 23bd 1170 5ebd cd90 8a3d 62bd 563d
00000260: 31b2 88bd af8d 833c fc71 cf3c 851b 80bd
00000270: f801 19bd 689d 2b3d 7226 a9bc f990 2bbd
00000280: 83d9 823d 4f27 37bd dc13 27bc 5450 7dbd
00000290: b8df 283d 440b 5e3d a7eb e7ba e62c 253c
000002a0: a042 503d a3cb 143d 67ed 09bc f828 fd39
000002b0: 3377 bfbb 155d 20bd 581a 5c3d a66f 17bd
000002c0: 1d8a 73bd 1196 9fbb 0faa 693d cfc9 71bd
000002d0: 0950 19bc 1e7c 243d 7d45 243c 7cf7 893c
000002e0: cb6d 913c 84ae 8ebd 71ec 3a3c 7660 82bd
000002f0: e4c3 88bd 7157 debc 59c1 0ebb 8f43 65bd
00000300: 6088 043d fc25 453d b361 37bc 8362 d5bc
00000310: cb56 903c b9ea babb 217c 613d 0ea1 223b
00000320: 104b 4d3d b627 5d3d ac7d c8ba 393a 88bb
00000330: 0f3b 8a3d 0ed7 2c3d 312c 133d 42ca 0c3d
00000340: 5574 f1bc 2ed4 6bbd 217d 2dbd a696 89bd
00000350: 0a33 983c 427f 5a3d b1d4 39bc 3e7a 223d
00000360: 3d2c 19bd 66ef 76bd 1149 eb3c ed74 853d
00000370: 96d7 763c 0312 15bc 3cb9 33bc c7f3 00bd
00000380: 8323 84bc 9114 5abc 1960 1bbc 6159 903d
00000390: b1ca 33bd 88c3 6c3d 4d84 0c3d f3e1 8bbc
000003a0: 0a54 5e3d 21d9 273d cf11 453d 2231 023b
000003b0: 41c1 3b3d 124d 57bd 7d58 8a3d 05ca 85bc
000003c0: acb8 bc3c f8c0 c03b d2b1 193c 7f1b 45bd
000003d0: 74bf e1bc 907f 633d 2972 c8bc f087 373d
000003e0: 702f 09bd a658 2ebd 800e 4a3d f0d0 093d
000003f0: c84c dabc c2d9 91bd 2240 f8bc 88d6 513d
0.00668439 0.057882857 0.03643638 0.0046502776 -0.051365446 0.027743991 0.045734476 -0.031178806
-0.058256503 -0.053982012 -0.0012882048 0.06808543 0.062273037 0.004564705 -0.051378023 0.013613349
0.046841983 0.03750337 -0.030578995 0.038549326 0.03411351 0.05145835 -0.0071273106 0.02395818
-0.038482826 0.016010938 -0.003839559 0.0028715252 -0.004071161 0.019404974 -0.020463958 -0.034408286
-0.06346875 0.057805873 0.01741217 0.0007662249 -0.03921295 0.006728653 0.023978882 -0.025041835
-0.07154193 0.022674166 0.01722922 -0.04421068 -0.0642334 -0.026589677 -0.009292095 0.023161
-0.064874 -0.01063094 -0.06926795 0.055328038 -0.014013688 -0.0084878905 0.0020379026 0.02058518
0.056908984 -0.047553178 -0.0450161 0.029049585 -0.047185723 -0.004482539 -0.025038693 -0.052696284
-0.047602404 -0.025911584 -0.0144124655 -0.06702429 0.050132133 0.045887608 -0.015520665 0.05081488
-0.022175722 0.04737528 -0.06073951 -0.015259201 -0.021461306 0.034570593 0.025107116 -0.011461651
-0.045473404 0.062292673 -0.034243926 0.004988273 0.037351478 -0.043764833 0.026239516 -0.05142925
-0.05912278 -0.03081554 0.06409435 0.06044823 0.040705916 -0.069806136 0.06245866 0.03261075
-0.018799888 0.017688164 0.043218054 -0.053560663 -0.061600946 0.061510857 0.026519582 -0.058294892
-0.056151126 0.029030642 0.056414936 0.047933422 0.025400294 -0.044943485 0.056642238 0.016153589
-0.009349931 -0.051394146 0.021201422 -0.056482796 0.038650215 -0.026262155 0.06411878 0.015352644
0.013284641 0.01122602 -0.0015680908 -0.030425163 -0.063137844 0.02731133 0.066412024 0.05173858
0.05258114 0.021414466 -0.0015428562 0.0024487765 -0.039124526 -0.07125498 0.032473695 0.051898967
-0.016605284 -0.012746646 -0.060207613 -0.0066383337 0.05463375 -0.052214853 0.016170269 -0.03455999
0.023149509 0.0669263 0.009213804 0.00611323 -0.039965883 -0.054306094 0.067659 0.052426703
-0.06674612 0.016058771 0.025322907 -0.06255249 -0.037355393 0.04189816 -0.020648215 -0.041886304
0.06389143 -0.044715222 -0.010197606 -0.061844185 0.04122898 0.054209962 -0.0017694131 0.010081505
0.05084479 0.036327016 -0.008418418 0.00048286445 -0.005843067 -0.03915127 0.05373606 -0.03697171
-0.059457887 -0.004870184 0.057046946 -0.05903035 -0.009357461 0.04015743 0.010026333 0.016841643
0.017752549 -0.0696688 0.011408911 -0.06366055 -0.06677988 -0.027141305 -0.0021782725 -0.055972632
0.03235662 0.048131928 -0.011192727 -0.02604795 0.017619511 -0.0057042507 0.05505002 0.0024815234
0.050120413 0.05399295 -0.0015296242 -0.0041573313 0.06749546 0.04219728 0.035930816 0.034372576
-0.029474417 -0.057575397 -0.04235566 -0.06718187 0.018579025 0.05334402 -0.0113422135 0.03966736
-0.037395705 -0.060286902 0.028721364 0.065164424 0.015066048 -0.009098533 -0.010969456 -0.031482484
-0.016130215 -0.0133105675 -0.009483361 0.07048298 -0.043894473 0.05780366 0.03430586 -0.017075514
0.054279365 0.040978555 0.048112687 0.0019865711 0.0458386 -0.052563734 0.06755159 -0.016331682
0.023037277 0.0058823787 0.009380775 -0.048121925 -0.027557112 0.055541575 -0.024468498 0.044807374
-0.033492506 -0.04256501 0.049330235 0.033646524 -0.02664794 -0.07121612 -0.030304018 0.051229984

critic.0.bias f4 [500]
00000000: 8765 e13c e035 16bd 3560 67bd e70b 013d
00000010: 08b0 7a3d 520f 903d 4db9 3d3d 5372 b8bc
00000020: 05ff 8b3d 369f dc3c 203b 3a3d 8a6a 46bd
00000030: a22d 793d 8dfb 20b8 c246 75bd 858a f83c
00000040: 9a1a 10bd 0d04 acbc 5055 573d 9cda 783d
00000050: 12ac 0b3d 30a8 46bd c50c 733d c6ea 9ebc
00000060: 31b8 c6bc 9c5e 96bc 6e9f e33c 0c60 8b3d
00000070: 105f 0fbd 6887 0a3c 6a84 c93c f2c6 75bd
00000080: 8dfb a0ba 85ed 273d 0f59 fabb 9987 00bd
00000090: 465c d93b 34b8 143d 74b5 e8bb 039c 53bc
000000a0: 6215 d8bc 5040 68bd 35b6 e53c 3d61 8b3d
000000b0: 3c4d 263d 3417 f6bc 5854 403d e71c 3abd
000000c0: ea28 3ebc d1a5 85bd 771f 593d 44a5 063d
000000d0: 32fc 753d b0a6 e73c 1bc4 24bd 8dae 793d
000000e0: c46a 5e3d 09f2 78bd 82f6 87bd cd45 3a3d
000000f0: a3c2 1bbd efed 8c3d dcb3 88bd 1c9a 62bd
00000100: 0e51 94bc ff38 653c cc46 94bc b730 50bd
00000110: 702d 903c d373 d03c e431 28bd 205e 8f3d
00000120: 9a95 393c 318a 7ebd ef97 11bd c66f 41bb
00000130: 593e 403d 4143 3fbd 8106 353d 5f8b 3d3b
00000140: 74bb 1abd ac99 08bd 29b1 843c 7be8 813c
00000150: 363d 8b3d db57 823c 9b90 67bd 6312 03bc
00000160: 6e02 383d b833 633d 7968 833d 4e32 35bc
00000170: 5c0c 5c3d c001 c53b a037 8ebd 9c2d a1bc
00000180: ff29 d7bc 5c20 763d d887 88bd 4cc2 78bd
00000190: f564 81bd b00a 473c 7e6d 4f3b bdec 253d
000001a0: 96fe 4f3d 0c6d 18bd ad8d 803d 0a1b 0ebd
000001b0: 5365 16bd c792 81bd 9cc7 c03c ef60 fabb
000001c0: 79b6 1f3c d9a5 3cbd ff62 11bc 95c4 4f3d
000001d0: 6a94 2d3d 5153 6cbc 59a9 8e3d 3623 83bd
000001e0: 5615 6fbb 093a 84bd 4c83 42bc cd02 b63c
000001f0: 3d52 893d 7354 1a3c 5e8b 883d cb82 6fbd
00000200: e4d3 82bd afc3 843d b60d 8f3d 84f9 afbc
00000210: afc0 f4bc 6e8e 62ba e449 c13c be1f 263d
00000220: 4ab0 3fbd aa06 63bd c508 c53c a231 8d3d
00000230: e851 103c 8ada 0c3d 4354 cd3b 243c 123d
00000240: 0c20 253d 362e 563d 9fd0 03bc 4853 6cbd
00000250: c6e1 003d c9d8 d7bc e89b 8abd 4e80 8f3d
00000260: d7e1 8fbd 9a18 87bd 3646 e2bc bca3 b8bc
00000270: a6fb b93c 1828 763d dbcd 353d 795d 86bd
00000280: dbb9 07bd b6af d5bc 47da 493a e05a 5c3d
00000290: e8de ecbc b31f 82bd f038 853d 8d43 45bd
000002a0: c641 643d 9e71 89bd 8533 40bd b875 c63c
000002b0: e254 8e3d d8ab b0bc fd6a dc3c 5f99 13bb
000002c0: 28a6 543c cebb d9ba acae 6b3d 9271 9bbb
000002d0: 29fa f8bc 4aa5 773d 6e67 f83c e7b0 513d
000002e0: 7211 46bc 8bc4 90bd b935 83bd 9fb3 8c3d
000002f0: 0a91 83bd 0b7f 2f3d 3460 81bc 7444 d03c
00000300: 564f 71bd e244 3b3c ad35 85ba 4073 3ebc
00000310: 3734 43b9 f2d9 013d 732c 5e3d dc78 3abd
00000320: 3852 373d 0d86 d5bc acc1 21bd 64de 763d
00000330: de82 133d 826b fb3c 2a94 e9bb f02c 723d
00000340: bbbe 62bc 67e3 8bbb 65e4 0fbd 287e 5fbd
00000350: 6aec 52bd e956 443d c60c 193d 62ed 54bd
00000360: cc15 6d3d eb46 78bd b372 2cbd cb97 3dbc
00000370: 7316 18bb 2a53 debc fe08 17bd 3b46 4f3d
00000380: 5c13 f8bc 234b 7d3d b664 4bbd 9a12 a2bc
00000390: 6cf1 04bd e5bc 1dbc 580e 783d 7dbc 033d
000003a0: 35c8 32bd e2fb 863d a42b abbc 4e84 453d
000003b0: 8faf 80bc e794 b9bc f3fc 6ebd 320f 0a3d
000003c0: 7d75 653d 4884 673d b16b b1bc 62ff 13bd
000003d0: bf5b 733d 9c2c 16bd 9e33 7cbd 00a1 603d
000003e0: 74c8 90bd 5747 92bd 775b 7ebd e636 94bc
000003f0: a6b1 a83c e311 76bd 4a7b a6bc 4a73 c8bc
0.027514232 -0.036672473 -0.056488235 0.03150549 0.061203033 0.07034172 0.046319295 -0.022515452
0.068357505 0.026931386 0.045466542 -0.048441447 0.060834534 -3.8381248e-05 -0.059881933 0.030339489
-0.03518162 -0.020998025 0.052571595 0.060755357 0.034099646 -0.04850024 0.05933835 -0.019399058
-0.024257751 -0.01835566 0.027785983 0.06805429 -0.035002768 0.008455135 0.024599273 -0.060004182
-0.0012281999 0.040998 -0.007640011 -0.031379316 0.0066333143 0.036308482 -0.007101709 -0.012915614
-0.026377384 -0.05670196 0.028040985 0.06805656 0.040601 -0.030040361 0.046955436 -0.04543772
-0.011606434 -0.065257676 0.053008523 0.032872453 0.060054965 0.028277725 -0.040226083 0.06095748
0.05430104 -0.060777698 -0.066388145 0.045476723 -0.038027417 0.0688132 -0.066749305 -0.05532275
-0.018105056 0.01399064 -0.018100165 -0.050827708 0.017599791 0.025445854 -0.041063204 0.07000375
0.011327172 -0.06214351 -0.035545286 -0.0029516085 0.04693446 -0.046694998 0.044195656 0.0028922183
-0.037776425 -0.033349678 0.016197758 0.015857926 0.067987844 0.015911033 -0.05653439 -0.007999989
0.044924192 0.055469245 0.06416411 -0.011059357 0.053722724 0.0060121715 -0.069442034 -0.019675069
-0.026265142 0.060089454 -0.06666535 -0.06073217 -0.06318084 0.012148544 0.0031650956 0.040508974
0.0507799 -0.03721337 0.062770225 -0.034693755 -0.036717724 -0.06326824 0.023532681 -0.00764095
0.009748095 -0.046056602 -0.0088737 0.050724585 0.042377867 -0.014424161 0.06965894 -0.064032
-0.0036481223 -0.06456382 -0.011872124 0.022218132 0.06705139 0.009419548 0.06667207 -0.058474343
-0.06388071 0.06482636 0.06985037 -0.021481283 -0.029877035 -0.00086424395 0.023594804 0.040557615
-0.04679898 -0.055426277 0.024052033 0.06894232 0.0088085905 0.034388103 0.0062661483 0.035701886
0.040313765 0.052290164 -0.008045345 -0.05769661 0.031465314 -0.026348488 -0.06768018 0.07006894
-0.070254974 -0.06596489 -0.02762137 -0.022539012 0.022703003 0.06009683 0.044385772 -0.06560797
-0.03313623 -0.026084762 0.00077000674 0.053797603 -0.028914884 -0.063537024 0.065050006 -0.048160125
0.05572679 -0.06711124 -0.046924133 0.024226055 0.06949784 -0.021566316 0.026906485 -0.0022521836
0.012979068 -0.0016611756 0.057539627 -0.0047437632 -0.030392723 0.060460366 0.030322757 0.051194098
-0.01208912 -0.070687376 -0.06406731 0.068701975 -0.064241484 0.042845767 -0.015792944 0.025423266
-0.05891355 0.011429997 -0.0010163091 -0.011624157 -0.000186161 0.03170199 0.05424161 -0.045525417
0.044756144 -0.026064897 -0.03949134 0.060270682 0.036013477 0.030690912 -0.0071282582 0.059124887
-0.013839419 -0.004269052 -0.035129923 -0.05456367 -0.051494993 0.047934446 0.037365697 -0.0519842
0.057882115 -0.060614508 -0.042101573 -0.011571835 -0.002320674 -0.027139265 -0.03687381 0.050604086
-0.030282669 0.061839234 -0.049656592 -0.01978426 -0.0324568 -0.0096275555 0.060560554 0.03216218
-0.043647964 0.065910116 -0.020894833 0.04822188 -0.015708713 -0.02265401 -0.0583467 0.033705898
0.05602025 0.056522638 -0.021657797 -0.036132224 0.059413668 -0.036663637 -0.061572663 0.05484104
-0.070694834 -0.07142513 -0.062098946 -0.018092584 0.020592522 -0.06007565 -0.02032246 -0.024469037

critic.2.weight f4 [200, 500]
00000000: 7965 1e3d 16c3 3c3c bbf8 2b3d ee3f 833c
00000010: a070 3dbc f60f 843b beb3 f63c bd6f 1cbd
00000020: 5e9e 7e3b b571 2c3a 64ee 623c dcfb 753c
00000030: 12ea 95bc 2a64 0bbd 5723 843c 9f1f 26bc
00000040: a6a5 11bd 45c6 463c e456 abba f7d9 14bd
00000050: fd75 8f3c c3de 5fbc f944 0dbd f4c2 c2bb
00000060: 9ad9 bfbc 5348 d13b 6860 0bbd 2e37 6a3a
00000070: 0310 893c 7fd8 333d fd0e 36bd 67ac 89bc
00000080: 1fa5 9e3c c0da 103d ec48 133d 1f5e 38bc
00000090: 3c34 bc3c 508e 663c 9ca9 8eba 45ab 54bc
000000a0: 0a1b b2bb cb89 0f3d fe18 213d 9126 243d
000000b0: 192d 1e3d 6008 0c3c ec60 09bd 3b5d 5dbc
000000c0: 9c5b 1cbd 553c 6bbc 063c 163d d30e 9e3c
000000d0: d21e 363d 8deb 133d 0bfd 17bd 4e23 963c
000000e0: e29e 0cbd ebca 2d3d 86e4 8abb 7384 1c3d
000000f0: 977d 153b bf8d 223d fb6d 9e3a 370c c9bc
00000100: a1ec 66bb a3aa bb3c 4b53 aa3c 8083 103c
00000110: 465e 8c3c 12b2 f13c d3bb 703a a653 1d3d
00000120: 822d 103d b869 ae3b fdf7 2e3d bcc0 cfbc
00000130: 9d24 013d 9bb8 f03a 1bbf 863c 635f 4fbc
00000140: 335b 18bc 1ecd 68bb b4e3 533b dc97 26bd
00000150: 7f35 7ebc 6a78 7a3a 4d1f a23c 68c2 863c
00000160: 0d8f 843c a7c0 2fbd 5a40 dd3c 68aa 2b3d
00000170: 0403 163d 0f3c 87b9 1cb4 85bc 9048 fabb
00000180: 0e09 16bc c93f a1bc 723d c8bc c633 dbbc
00000190: 146d 71bc 4861 51bc 0711 35bd 3b23 2dbd
000001a0: cc08 053d 9409 fb3b 47cc a73c 1dcc dbbc
000001b0: 4151 21bd 89e5 533c a86e 113d cabb 533c
000001c0: dabb 24bd da5c 333d cb7f b8bb 23ef 06bc
000001d0: d25c 65bc 922f d4bc a9aa 1fbd 3f53 ddbc
000001e0: 3bda aa3c 3fe8 8d3c b509 ee3c 39c4 c93c
000001f0: 9fb6 cd3b 78dd 1f3d 49f0 d5bb e37b f8bb
00000200: 661d 6dbc bbae 59bc bf76 aabb 765d eab9
00000210: 4ea2 1d3d 8812 8e3c d0ad be3b d95a 2b3c
00000220: 0486 eabc ec91 d83b 4c13 e6bc 19b3 7ebc
00000230: 1c66 1e3a 5ffb 013d 794a 8cbb a16e d1bc
00000240: 7459 203d 36fc 02bc 1195 363c 0800 6fbc
00000250: 1480 f9bb 32f8 053d c527 1ebc 5319 45bc
00000260: ca8f e93b 28b5 a13c 9cd6 e23c ea94 053d
00000270: 8c6f 213b 7a28 e5bc ec49 c03b 4c2e 2a3b
00000280: 5f57 1e3d 09da e4bc 5981 01bd 8b82 653c
00000290: bf31 97bc 97bf 05bc 6ffd 2bbb 9fd4 76bc
000002a0: cd0c b9ba 8f42 e5bc d547 6fbb be6e ddbc
000002b0: 5a4a 03bd 30c9 1c3d e9f3 183d 8c65 f93c
000002c0: ace8 0b3d 3caa d3bb dff5 1b3d 4081 033d
000002d0: 56fe f6bc 3183 303d 6a72 2b3c aeac a43b
000002e0: 2063 29bd e44a 383c 4a02 e6ba 85db 38bb
000002f0: c685 2a38 6e48 47bc 4c79 00bc 1d0d 6cbc
00000300: 35dd 2a3d bb68 143d cb93 1e3d d679 b5bc
00000310: 63d2 abbc 3a4f 0a3d 685a bbba 756c 273d
00000320: 70f8 4ebb 634d 2b3c e7e1 d3bc 99c0 35bd
00000330: 2a66 e6bc fe20 ecbc 2fb5 22bc 7723 1f3d
00000340: ab15 ddbc c963 3c3b 400b 0f3d 10e5 e6bc
00000350: 5d15 c83c ab2a 2b3d 14ed 363d 0774 c3bc
00000360: dda4 a8bc 8488 203d 8df5 1c3d 1eac 993c
00000370: 03d6 ef3c dc43 aebc ce5f 8f3c 3cdb 153d
00000380: a8a2 083d 2370 013c 51a5 62bb f674 bb3c
00000390: 3005 23bd d818 71ba b33f 113d d51a a4bc
000003a0: 8374 0f3d b7e2 0ebd c623 9fbb 1a44 1f3d
000003b0: 530d 8ab9 629a 243d 2f3f 25bd 00a3 c4bc
000003c0: a759 d83c b5c5 063d e73b 2bbd b49e 233d
000003d0: ed89 3ebc ea04 17bd d710 133d a6ad 31bb
000003e0: 6a67 2bbc daa6 703c ebe1 133d 81d0 953c
000003f0: 98c9 1b3c e428 2a3d 9622 17bd 8304 033d
0.03867099 0.0115211215 0.041985255 0.016021695 -0.011562496 0.004030223 0.030115005 -0.0381925
0.0038851718 0.0006578223 0.013850782 0.015013661 -0.01830009 -0.03403107 0.016130133 -0.010139375
-0.035558365 0.012132232 -0.001307216 -0.03634068 0.017512316 -0.01366395 -0.034489606 -0.0059436504
-0.02341919 0.0063867955 -0.034027487 0.0008934614 0.016731268 0.04390764 -0.044447888 -0.01680584
0.019365845 0.035364866 0.035958216 -0.011252909 0.022974126 0.014072016 -0.0010884288 -0.012980287
-0.005435352 0.03504352 0.039330475 0.040075842 0.038617227 0.008546919 -0.033539698 -0.013510997
-0.038173303 -0.014357646 0.036678337 0.019294178 0.044462986 0.03611331 -0.037106555 0.018327381
-0.03433121 0.042429846 -0.004238668 0.03821225 0.0022810453 0.03968596 0.001208722 -0.024541957
-0.0035236257 0.022908514 0.02079167 0.008820415 0.017134797 0.029503856 0.00091832614 0.03840985
0.03519965 0.0053226613 0.04271697 -0.025360458 0.031529058 0.0018365564 0.016448548 -0.012657019
-0.009299087 -0.003552265 0.0032331767 -0.040672168 -0.015515684 0.0009554686 0.019790316 0.016450122
0.016181493 -0.042908337 0.027008224 0.04191056 0.03662397 -0.00025793954 -0.016321234 -0.0076380447
-0.009157432 -0.019683735 -0.024443362 -0.026758086 -0.014735479 -0.012779541 -0.04420569 -0.042269927
0.032479092 0.007661054 0.02048315 -0.026830727 -0.03938413 0.012933143 0.03550592 0.01292319
-0.04021821 0.043789722 -0.0056304685 -0.008235726 -0.013999181 -0.02590159 -0.038981114 -0.027017234
0.020856014 0.017322658 0.029057363 0.024629699 0.0062778736 0.03902957 -0.0065288884 -0.007583128
-0.014472341 -0.013286288 -0.005202144 -0.00044701592 0.038484864 0.01734282 0.00581906 0.0104586715
-0.028628357 0.006609192 -0.028085373 -0.01554563 0.0006042437 0.031733867 -0.004281339 -0.025565447
0.03914781 -0.007994702 0.011143939 -0.01458741 -0.007614145 0.0327074 -0.0096530365 -0.012029964
0.0071277367 0.019739702 0.027690224 0.03261272 0.0024633138 -0.027973402 0.005868187 0.0025967536
0.038657542 -0.027935999 -0.031617496 0.014008175 -0.018456338 -0.008163354 -0.0026243587 -0.015065341
-0.0014118195 -0.02798584 -0.003651132 -0.027030345 -0.03205333 0.038277805 0.037341986 0.03044393
0.03415744 -0.0064595025 0.038076278 0.032105684 -0.030150574 0.043093864 0.01046429 0.005025468
-0.0413543 0.011248324 -0.001754829 -0.0028207016 4.0655745e-05 -0.012163265 -0.007841419 -0.014407423
0.041714866 0.03623269 0.038715165 -0.022152822 -0.020974344 0.033766963 -0.0014293911 0.040874917
-0.0031581186 0.010455462 -0.025864555 -0.04437313 -0.028124887 -0.028824326 -0.009930893 0.03885218
-0.026987871 0.0028746 0.03492284 -0.028185397 0.02442425 0.04178874 0.04465969 -0.023859037
-0.020586425 0.03919269 0.038320113 0.01875883 0.029276853 -0.021272592 0.017501738 0.03658603
0.033358246 0.007900271 -0.00345834 0.02288292 -0.03979987 -0.00091971224 0.03546114 -0.020032326
0.035023224 -0.03488418 -0.0048565594 0.038883306 -0.00026331338 0.040186293 -0.04034346 -0.024003506
0.026409937 0.032903392 -0.041805174 0.039946273 -0.011629564 -0.03686992 0.03590473 -0.002711156
-0.010461668 0.014688218 0.036104124 0.018287899 0.009508513 0.041542903 -0.036898218 0.031986725

critic.2.bias f4 [200]
00000000: 25aa 92bc c9ad 07bc ff38 dd3c c94c c8bc
00000010: 1f18 f93c 90d4 8cbc d2ef 47bc 1f9f 2cbc
00000020: a6cd d53c 710b 283d 7736 b53c e2b1 11bb
00000030: 26fd 4aba 3112 213d 8c88 18b9 430d 77bc
00000040: 5b0e efbc 2500 e33c 9a7f 24bc 20f6 d9bb
00000050: 4612 023d 4a7f e33c 3ccd 903c 18e0 c9bc
00000060: 4478 3c3c 0402 1c3d b8c6 d13c 54fb 553c
00000070: 83fe 77bc 6ac0 f5bc 60f0 34bc 52b1 803c
00000080: e7f5 dc3b 5a5a e83c d0d3 b93c 43ee 9c3c
00000090: b110 48bb 92bd f3ba 73aa 853c af55 043b
000000a0: a2a1 cebc eb9f 4c3c f03a cc3c b2da 9c3c
000000b0: 320a 1b3d 5ee2 42bc fa79 36bd 4422 ae3c
000000c0: b3d1 1ebd 4064 10bd c73e 30bd 5e65 1b3d
000000d0: 793e 9fbc 8970 cf3c 1b13 bc3c 3383 a23c
000000e0: 37de 4cbc 586a c6bc 5175 0f3d 6683 1ebd
000000f0: 22f4 c83c 329a 373c 87a3 35bd cd1a b6bc
00000100: 7c01 103d 437c 9dbb b32f 23bc cde8 04bd
00000110: 3c56 aabb b1bc 0cbb 938a 8bbc 1d38 75bc
00000120: ff3a 573c 1275 2b3d a09a dc3c 50f1 763c
00000130: b7e3 e43c 027c 96bb e34d 1e3d d99e 90bb
00000140: a546 33bd 2af6 3a3c 2ae8 b83c 9847 883c
00000150: 371d ec3a e707 e0bc c7d8 d33c 7a26 b53c
00000160: ff03 f93c 7308 013c d9b9 873c 0556 a8bc
00000170: d9b5 6c3c 4fee 273d d9bd c03c ac43 b4bc
00000180: 1da6 9f3c 62bf 103c 0f60 843a b57b 193d
00000190: 7363 29bd 633e 1b3d cf41 7db9 eef2 2cbc
000001a0: 1d0c 05bd 12f6 0f3b 883d 363d b222 083d
000001b0: 2427 ce3a 5bc6 1d3d e891 143c a3d9 2d3d
000001c0: 946b da3c ed46 013d f0e0 a4bc 8ac9 2fbc
000001d0: 5dc9 e13c 411f d53b 6d96 2abd 2c64 583a
000001e0: 595c 26bd 4ae6 3dbc c733 063c 63e4 433c
000001f0: 78ab a8bc 171d 13bc 04d1 e33c 01d5 103d
00000200: 1d3c 34bd 8ac2 0dbd ef17 fbbc 7274 f13c
00000210: 73fa e3b9 a9b1 0e3c d8b8 143d e18f dabb
00000220: 2979 153d bccd 703c 148b b73b 91c0 343d
00000230: 585c 463c 162d 093d 2435 ce3b 1cb6 04bd
00000240: ae14 253c c816 9f3c 2f8c c7bb e84c 2f3d
00000250: 955f a43a ce13 eb3c f622 263d 3b1c 393c
00000260: 9e17 02bd 94dd 023d d523 bcba f671 513b
00000270: 1205 08bd 3b28 ca3b 3614 e4b7 b709 0cbc
00000280: 7d05 1ebd 9df3 5e3c 2458 2b3d a341 9cbc
00000290: 54d8 e0ba cf0b 65bc c552 303c d8d6 71bc
000002a0: f7e4 f13c 5e24 05bd 7390 173d c689 0bbd
000002b0: da40 d23c 7676 323d 24b5 173d d578 ccbc
000002c0: dbfc 24bd 3597 02bd 4aed 8dbc 8669 b5b8
000002d0: 5166 0ebd de87 94bc 8199 c3bc b7ad 31bc
000002e0: a63c 0dbd d455 f0bc d06d 14bd c2b6 dc3a
000002f0: d861 643a 9e30 353c f274 d43c 59cd 33bc
00000300: 3190 e33c 64be 60bc 16c6 943c 9817 083d
00000310: 7998 a8bc 5ddc ec3c a017 08bd edaf 9dbc
-0.017903397 -0.00828118 0.027004717 -0.024450677 0.03040701 -0.017191201 -0.012203174 -0.010535984
0.026099037 0.041026536 0.022120697 -0.002223127 -0.00077434105 0.03932399 -0.00014546717 -0.015078845
-0.02918165 0.02771003 -0.010040188 -0.006651655 0.03175571 0.027770657 0.017675988 -0.024642989
0.011503283 0.03808786 0.025607452 0.01306041 -0.015136364 -0.029998977 -0.011043638 0.015709553
0.006743181 0.028363395 0.022684008 0.01915658 -0.0030527527 -0.0018595925 0.016316628 0.0020192673
-0.025223557 0.012489299 0.024930447 0.01914725 0.03785152 -0.01189479 -0.04454992 0.021256573
-0.038774204 -0.035251856 -0.04302862 0.03793847 -0.019438969 0.025322216 0.022958329 0.019837951
-0.012504152 -0.02422063 0.03502399 -0.03869953 0.024530474 0.011206197 -0.044345405 -0.022229576
0.035157666 -0.004806073 -0.009960103 -0.03244858 -0.005198268 -0.0021474774 -0.01703385 -0.014966992
0.013136624 0.041859694 0.0269292 0.015072182 0.027940614 -0.0045924196 0.038648497 -0.0044134674
-0.043768544 0.011411229 0.022571642 0.016635701 0.0018014078 -0.027347518 0.025860203 0.022113074
0.030397413 0.00787555 0.016568111 -0.02054883 0.014447653 0.040998753 0.023528026 -0.022004925
0.019488389 0.008834692 0.0010099428 0.03747149 -0.041354608 0.037901293 -0.00024152476 -0.010555966
-0.032482255 0.0021966738 0.044492275 0.033236213 0.0015728218 0.038519245 0.00906799 0.042443883
0.026662625 0.03156178 -0.02012679 -0.010729203 0.027561838 0.00650397 -0.041647363 0.0008254673
-0.040615413 -0.01159055 0.008191056 0.011956307 -0.020589575 -0.0089791035 0.027809627 0.035359386
-0.04400264 -0.034609355 -0.03065106 0.02947447 -0.00043483413 0.00870935 0.036309093 -0.0066699837
0.0364925 0.014697488 0.005601296 0.044128958 0.012106977 0.033490263 0.006292956 -0.032400236
0.010075731 0.019420043 -0.0060897092 0.042797953 0.0012540693 0.028695967 0.040560685 0.011298235
-0.031760804 0.031949595 -0.001435394 0.0031958795 -0.03320796 0.0061693466 -2.718913e-05 -0.008547238
-0.038579453 0.013607887 0.041832104 -0.019074267 -0.0017154315 -0.013979866 0.010761921 -0.014760695
0.029528124 -0.032505386 0.037002992 -0.034066938 0.02566569 0.043570004 0.037037984 -0.024959961
-0.040280204 -0.031882484 -0.017325062 -8.650408e-05 -0.034765545 -0.018131193 -0.023876907 -0.0108446395
-0.034481667 -0.029337801 -0.036237538 0.0016839134 0.00087120896 0.0110589545 0.02593467 -0.010974252
0.027778717 -0.013717268 0.018160861 0.033225626 -0.020580517 0.028913671 -0.033225656 -0.019248927

critic.4.weight f4 [1, 200]
00000000: 523a f93b 0f6f 8b3d c900 0ebd 3394 3bbd
00000010: 934f 863d bfd8 63bd f363 393c 426c 4fbc
00000020: b6ea 08bd ce8d 61bd 3ddf 81bd 023f 32bd
00000030: b103 b0bc 405f 29bd aa98 843c f659 a5bb
00000040: fd5c 8dbd 001e 96bc d379 db3c 4ba8 e1bc
00000050: fed3 cd3c db44 4b3d 618b 82bd 8a4d e83c
00000060: 06e1 90bb c55c e73c 12f1 703d c1fb 0f3d
00000070: ffac cdbc 1154 a23c 8084 d2bc a8f3 483d
00000080: d354 d23c 3d02 4cbc 36e5 423c 11c4 36bd
00000090: a4d1 593d bff4 2d3d e585 d63c 2142 debb
000000a0: c8d5 8b3d d80e 14bd 604d 2f3d 2a96 8a3d
000000b0: 09ef 113c f9c1 8fbd 2e73 6fbd 835d 52bd
000000c0: fc73 373c c3a3 49bd 78b0 22bd 9afd d13c
000000d0: 95d8 9cbc 5cde 57bd 35f7 803d b48c 24bd
000000e0: 11a4 443b 5a3b 7abc af01 7e3c 5a01 3bbd
000000f0: 0542 2a3d a6c5 82bd 0305 8ebd 1559 27bd
00000100: f0c7 d43c 9edf c83c 2d43 aabc 92bf 1a3d
00000110: 445a 773b f85b 59bc 9993 18bd 44ff 41bd
00000120: 4d3b 0cbd e526 4a3d 1696 9fbc f016 2abd
00000130: 18c6 273d 2c57 55bd bf81 ab3c 6a04 853d
00000140: ae47 c83c c126 3f3d ff6c 113c 7b31 223d
00000150: dd4f 533d 992c debc d0a7 4f3d 0c62 813d
00000160: 1a37 39bd 7a45 5ebd b26a 223d b35c 46bc
00000170: 54d9 67bd de4e a4bc a8a4 05ba 853a efbc
00000180: 0d9b 8bbd a762 e0bc 9bd0 adbb f8f5 df3c
00000190: 1ef2 5d3c da80 0c3d 3175 c7bc 461b 5e3d
000001a0: ba1b fa3c b871 063d cb5a 4f3b 94a6 cb3c
000001b0: 10eb 8bbb af2b df3a e28c 023d 280b ea3c
000001c0: 286c 733d 67da 8f3d 6eed 233d 5154 4a3c
000001d0: 7e5b abbb 34ab a03b 2901 8ebd 3ff8 e33c
000001e0: 3386 7cbd ff4b 213c 83c4 6f3d c60f 883d
000001f0: f865 26bd 8786 a13c 6231 ed3b 060a 823b
00000200: 423d 713c 97d0 56bd 2f4d 733c 0090 50bd
00000210: e062 943c 48c9 f7bb 3954 9d3c 0f83 25bd
00000220: 7c01 45bd 6360 66bb ffe4 86bd 5d63 84bc
00000230: 203a 823d 1912 1bbd 78a9 5fbd 5f4b ca3b
00000240: fff0 723d de61 ddbc ddaa e4bc bc05 473d
00000250: 491d cc3c f73e d33a 7e18 2e3d 6bbc 163d
00000260: 27a3 733d 528a 80bd af1c e0bc f095 1bbd
00000270: 7311 823c 6b35 933c 28c3 753d eec8 1b3c
00000280: 80aa 803d f7ba 28bd 2e90 233d 79e0 77bc
00000290: a127 91bc e9ab b43c f501 5d3d 3f71 0bbd
000002a0: 36fd 8dbd 3527 39bd a783 103d c03b 213d
000002b0: de6e abbc 43cb a6bc d7b2 f2bc 65ef 753d
000002c0: ff0c dfbb 54cc 593c 6da0 593d 9933 693d
000002d0: 1189 543d 4517 12bd 8d9d 1b3b 047a 1bbc
000002e0: 9c8a 983c 97ad 8e3d 42b8 80bd 8399 e33c
000002f0: 428f f0bc c3cb ce3c dd6d 5ebd 4b30 e5bc
00000300: 6017 3c3d cab3 6e3d 30f7 83bd 3786 83bc
00000310: c1fe 21bd 8343 85bd cae2 35bd 396a 3bbc
0.0076058293 0.06808292 -0.034668718 -0.04579563 0.06558146 -0.055626627 0.011315334 -0.012660088
-0.033426963 -0.055066876 -0.063414074 -0.04351712 -0.021486135 -0.041350603 0.016186077 -0.0050461246
-0.06902502 -0.018324852 0.026791489 -0.027546069 0.0251255 0.049626213 -0.06374241 0.028357286
-0.004421356 0.028242478 0.058823653 0.0351522 -0.025106905 0.019815477 -0.025697947 0.049060494
0.025675213 -0.0124517055 0.011895468 -0.044620577 0.053178445 0.042469736 0.026186893 -0.0067827855
0.06827885 -0.03614697 0.0427984 0.06766923 0.008907088 -0.07019419 -0.058459453 -0.05135871
0.011197086 -0.04922844 -0.039719075 0.025633622 -0.019146243 -0.052702293 0.06297151 -0.040173247
0.0030005018 -0.01527294 0.015503331 -0.045655586 0.041566867 -0.06385355 -0.0693455 -0.04085644
0.025974244 0.024520691 -0.020783985 0.037780352 0.0037743011 -0.013266556 -0.037250135 -0.04736258
-0.03423624 0.0493535 -0.019480746 -0.04152578 0.0409604 -0.052085087 0.020935891 0.064949825
0.024448242 0.046667818 0.008876084 0.03959797 0.051589835 -0.027120875 0.050697148 0.06317529
-0.045218565 -0.054265477 0.039652534 -0.012107062 -0.056603745 -0.020057138 -0.0005098083 -0.029202709
-0.06816683 -0.027390791 -0.0053044087 0.027338967 0.013546495 0.03430257 -0.024347873 0.05422523
0.0305308 0.032823294 0.003163981 0.024859704 -0.004269965 0.0017026569 0.031872638 0.028569773
0.059429318 0.07024079 0.040021352 0.012349204 -0.0052294126 0.0049032215 -0.06933815 0.027828334
-0.06165142 0.009844779 0.058537018 0.066436335 -0.04062459 0.019717468 0.007238553 0.00396848
0.014724078 -0.05244502 0.014849945 -0.05091858 0.018113554 -0.0075618364 0.0192052 -0.04040819
-0.04809712 -0.0035152666 -0.06586646 -0.016160661 0.06358743 -0.037859056 -0.054604977 0.0061735357
0.059311863 -0.027024206 -0.027913505 0.048589453 0.024916308 0.0016116787 0.042503826 0.036800783
0.059481766 -0.062763825 -0.027357427 -0.03798479 0.015877461 0.017969808 0.06000057 0.009508355
0.0628252 -0.04119393 0.039932422 -0.015129202 -0.017719092 0.02205463 0.053956944 -0.034043547
-0.06933062 -0.045203406 0.035281803 0.039363623 -0.020926889 -0.020360595 -0.029626293 0.060042758
-0.006806969 0.0132933445 0.05313151 0.056933973 0.05188853 -0.035666723 0.002374503 -0.00948954
0.018620782 0.069667034 -0.062851444 0.027783161 -0.029365186 0.025243646 -0.054303993 -0.02797713
0.04592073 0.05827693 -0.06443632 -0.01605521 -0.039549593 -0.065070175 -0.044405736 -0.0114389
